Conducting graph-fl label skew simulation...
num_classes: 3
global label distribution: [500 500 500]
label_counts:
[[105  18  82]
 [122  93 204]
 [133 206   0]
 [ 90  88  90]
 [ 50  95 124]]
Saved dataset arguments to dataset/distrib/graph_fl_label_skew_1.00_IMDB-MULTI_client_5/description.txt.
GIN(
  (convs): ModuleList(
    (0): GINConv(nn=Sequential(
      (0): Linear(in_features=89, out_features=128, bias=True)
      (1): BatchNorm1d(128, eps=1e-05, momentum=0.1, affine=True, track_running_stats=True)
      (2): ReLU()
      (3): Linear(in_features=128, out_features=64, bias=True)
    ))
    (1): GINConv(nn=Sequential(
      (0): Linear(in_features=64, out_features=128, bias=True)
      (1): BatchNorm1d(128, eps=1e-05, momentum=0.1, affine=True, track_running_stats=True)
      (2): ReLU()
      (3): Linear(in_features=128, out_features=64, bias=True)
    ))
  )
  (batch_norms): ModuleList(
    (0-1): 2 x BatchNorm1d(64, eps=1e-05, momentum=0.1, affine=True, track_running_stats=True)
  )
  (lin1): Linear(in_features=64, out_features=64, bias=True)
  (batch_norm1): BatchNorm1d(64, eps=1e-05, momentum=0.1, affine=True, track_running_stats=True)
  (lin2): Linear(in_features=64, out_features=3, bias=True)
)
GIN(
  (convs): ModuleList(
    (0): GINConv(nn=Sequential(
      (0): Linear(in_features=89, out_features=128, bias=True)
      (1): BatchNorm1d(128, eps=1e-05, momentum=0.1, affine=True, track_running_stats=True)
      (2): ReLU()
      (3): Linear(in_features=128, out_features=64, bias=True)
    ))
    (1): GINConv(nn=Sequential(
      (0): Linear(in_features=64, out_features=128, bias=True)
      (1): BatchNorm1d(128, eps=1e-05, momentum=0.1, affine=True, track_running_stats=True)
      (2): ReLU()
      (3): Linear(in_features=128, out_features=64, bias=True)
    ))
  )
  (batch_norms): ModuleList(
    (0-1): 2 x BatchNorm1d(64, eps=1e-05, momentum=0.1, affine=True, track_running_stats=True)
  )
  (lin1): Linear(in_features=64, out_features=64, bias=True)
  (batch_norm1): BatchNorm1d(64, eps=1e-05, momentum=0.1, affine=True, track_running_stats=True)
  (lin2): Linear(in_features=64, out_features=3, bias=True)
)
GIN(
  (convs): ModuleList(
    (0): GINConv(nn=Sequential(
      (0): Linear(in_features=89, out_features=128, bias=True)
      (1): BatchNorm1d(128, eps=1e-05, momentum=0.1, affine=True, track_running_stats=True)
      (2): ReLU()
      (3): Linear(in_features=128, out_features=64, bias=True)
    ))
    (1): GINConv(nn=Sequential(
      (0): Linear(in_features=64, out_features=128, bias=True)
      (1): BatchNorm1d(128, eps=1e-05, momentum=0.1, affine=True, track_running_stats=True)
      (2): ReLU()
      (3): Linear(in_features=128, out_features=64, bias=True)
    ))
  )
  (batch_norms): ModuleList(
    (0-1): 2 x BatchNorm1d(64, eps=1e-05, momentum=0.1, affine=True, track_running_stats=True)
  )
  (lin1): Linear(in_features=64, out_features=64, bias=True)
  (batch_norm1): BatchNorm1d(64, eps=1e-05, momentum=0.1, affine=True, track_running_stats=True)
  (lin2): Linear(in_features=64, out_features=3, bias=True)
)
GIN(
  (convs): ModuleList(
    (0): GINConv(nn=Sequential(
      (0): Linear(in_features=89, out_features=128, bias=True)
      (1): BatchNorm1d(128, eps=1e-05, momentum=0.1, affine=True, track_running_stats=True)
      (2): ReLU()
      (3): Linear(in_features=128, out_features=64, bias=True)
    ))
    (1): GINConv(nn=Sequential(
      (0): Linear(in_features=64, out_features=128, bias=True)
      (1): BatchNorm1d(128, eps=1e-05, momentum=0.1, affine=True, track_running_stats=True)
      (2): ReLU()
      (3): Linear(in_features=128, out_features=64, bias=True)
    ))
  )
  (batch_norms): ModuleList(
    (0-1): 2 x BatchNorm1d(64, eps=1e-05, momentum=0.1, affine=True, track_running_stats=True)
  )
  (lin1): Linear(in_features=64, out_features=64, bias=True)
  (batch_norm1): BatchNorm1d(64, eps=1e-05, momentum=0.1, affine=True, track_running_stats=True)
  (lin2): Linear(in_features=64, out_features=3, bias=True)
)
GIN(
  (convs): ModuleList(
    (0): GINConv(nn=Sequential(
      (0): Linear(in_features=89, out_features=128, bias=True)
      (1): BatchNorm1d(128, eps=1e-05, momentum=0.1, affine=True, track_running_stats=True)
      (2): ReLU()
      (3): Linear(in_features=128, out_features=64, bias=True)
    ))
    (1): GINConv(nn=Sequential(
      (0): Linear(in_features=64, out_features=128, bias=True)
      (1): BatchNorm1d(128, eps=1e-05, momentum=0.1, affine=True, track_running_stats=True)
      (2): ReLU()
      (3): Linear(in_features=128, out_features=64, bias=True)
    ))
  )
  (batch_norms): ModuleList(
    (0-1): 2 x BatchNorm1d(64, eps=1e-05, momentum=0.1, affine=True, track_running_stats=True)
  )
  (lin1): Linear(in_features=64, out_features=64, bias=True)
  (batch_norm1): BatchNorm1d(64, eps=1e-05, momentum=0.1, affine=True, track_running_stats=True)
  (lin2): Linear(in_features=64, out_features=3, bias=True)
)
GIN(
  (convs): ModuleList(
    (0): GINConv(nn=Sequential(
      (0): Linear(in_features=89, out_features=128, bias=True)
      (1): BatchNorm1d(128, eps=1e-05, momentum=0.1, affine=True, track_running_stats=True)
      (2): ReLU()
      (3): Linear(in_features=128, out_features=64, bias=True)
    ))
    (1): GINConv(nn=Sequential(
      (0): Linear(in_features=64, out_features=128, bias=True)
      (1): BatchNorm1d(128, eps=1e-05, momentum=0.1, affine=True, track_running_stats=True)
      (2): ReLU()
      (3): Linear(in_features=128, out_features=64, bias=True)
    ))
  )
  (batch_norms): ModuleList(
    (0-1): 2 x BatchNorm1d(64, eps=1e-05, momentum=0.1, affine=True, track_running_stats=True)
  )
  (lin1): Linear(in_features=64, out_features=64, bias=True)
  (batch_norm1): BatchNorm1d(64, eps=1e-05, momentum=0.1, affine=True, track_running_stats=True)
  (lin2): Linear(in_features=64, out_features=3, bias=True)
)
round # 0		sampled_clients: [0, 1, 2, 3, 4]
[client 0]	loss_train: 1.0544	loss_val: 1.0852	loss_test: 1.0831	accuracy_train: 0.5337	accuracy_val: 0.4500	accuracy_test: 0.5000
[client 1]	loss_train: 1.1269	loss_val: 1.0892	loss_test: 1.1626	accuracy_train: 0.2964	accuracy_val: 0.2927	accuracy_test: 0.3182
[client 2]	loss_train: 1.0943	loss_val: 1.0615	loss_test: 1.1114	accuracy_train: 0.3889	accuracy_val: 0.3824	accuracy_test: 0.4000
…
