GIN(
  (convs): ModuleList(
    (0): GINConv(nn=Sequential(
      (0): Linear(in_features=89, out_features=128, bias=True)
      (1): BatchNorm1d(128, eps=1e-05, momentum=0.1, affine=True, track_running_stats=True)
      (2): ReLU()
      (3): Linear(in_features=128, out_features=64, bias=True)
    ))
    (1): GINConv(nn=Sequential(
      (0): Linear(in_features=64, out_features=128, bias=True)
      (1): BatchNorm1d(128, eps=1e-05, momentum=0.1, affine=True, track_running_stats=True)
      (2): ReLU()
      (3): Linear(in_features=128, out_features=64, bias=True)
    ))
  )
  (batch_norms): ModuleList(
    (0-1): 2 x BatchNorm1d(64, eps=1e-05, momentum=0.1, affine=True, track_running_stats=True)
  )
  (lin1): Linear(in_features=64, out_features=64, bias=True)
  (batch_norm1): BatchNorm1d(64, eps=1e-05, momentum=0.1, affine=True, track_running_stats=True)
  (lin2): Linear(in_features=64, out_features=3, bias=True)
)
GIN(
  (convs): ModuleList(
    (0): GINConv(nn=Sequential(
      (0): Linear(in_features=89, out_features=128, bias=True)
      (1): BatchNorm1d(128, eps=1e-05, momentum=0.1, affine=True, track_running_stats=True)
      (2): ReLU()
      (3): Linear(in_features=128, out_features=64, bias=True)
    ))
    (1): GINConv(nn=Sequential(
      (0): Linear(in_features=64, out_features=128, bias=True)
      (1): BatchNorm1d(128, eps=1e-05, momentum=0.1, affine=True, track_running_stats=True)
      (2): ReLU()
      (3): Linear(in_features=128, out_features=64, bias=True)
    ))
  )
  (batch_norms): ModuleList(
    (0-1): 2 x BatchNorm1d(64, eps=1e-05, momentum=0.1, affine=True, track_running_stats=True)
  )
  (lin1): Linear(in_features=64, out_features=64, bias=True)
  (batch_norm1): BatchNorm1d(64, eps=1e-05, momentum=0.1, affine=True, track_running_stats=True)
  (lin2): Linear(in_features=64, out_features=3, bias=True)
)
GIN(
  (convs): ModuleList(
    (0): GINConv(nn=Sequential(
      (0): Linear(in_features=89, out_features=128, bias=True)
      (1): BatchNorm1d(128, eps=1e-05, momentum=0.1, affine=True, track_running_stats=True)
      (2): ReLU()
      (3): Linear(in_features=128, out_features=64, bias=True)
    ))
    (1): GINConv(nn=Sequential(
      (0): Linear(in_features=64, out_features=128, bias=True)
      (1): BatchNorm1d(128, eps=1e-05, momentum=0.1, affine=True, track_running_stats=True)
      (2): ReLU()
      (3): Linear(in_features=128, out_features=64, bias=True)
    ))
  )
  (batch_norms): ModuleList(
    (0-1): 2 x BatchNorm1d(64, eps=1e-05, momentum=0.1, affine=True, track_running_stats=True)
  )
  (lin1): Linear(in_features=64, out_features=64, bias=True)
  (batch_norm1): BatchNorm1d(64, eps=1e-05, momentum=0.1, affine=True, track_running_stats=True)
  (lin2): Linear(in_features=64, out_features=3, bias=True)
)
GIN(
  (convs): ModuleList(
    (0): GINConv(nn=Sequential(
      (0): Linear(in_features=89, out_features=128, bias=True)
      (1): BatchNorm1d(128, eps=1e-05, momentum=0.1, affine=True, track_running_stats=True)
      (2): ReLU()
      (3): Linear(in_features=128, out_features=64, bias=True)
    ))
    (1): GINConv(nn=Sequential(
      (0): Linear(in_features=64, out_features=128, bias=True)
      (1): BatchNorm1d(128, eps=1e-05, momentum=0.1, affine=True, track_running_stats=True)
      (2): ReLU()
      (3): Linear(in_features=128, out_features=64, bias=True)
    ))
  )
  (batch_norms): ModuleList(
    (0-1): 2 x BatchNorm1d(64, eps=1e-05, momentum=0.1, affine=True, track_running_stats=True)
  )
  (lin1): Linear(in_features=64, out_features=64, bias=True)
  (batch_norm1): BatchNorm1d(64, eps=1e-05, momentum=0.1, affine=True, track_running_stats=True)
  (lin2): Linear(in_features=64, out_features=3, bias=True)
)
GIN(
  (convs): ModuleList(
    (0): GINConv(nn=Sequential(
      (0): Linear(in_features=89, out_features=128, bias=True)
      (1): BatchNorm1d(128, eps=1e-05, momentum=0.1, affine=True, track_running_stats=True)
      (2): ReLU()
      (3): Linear(in_features=128, out_features=64, bias=True)
    ))
    (1): GINConv(nn=Sequential(
      (0): Linear(in_features=64, out_features=128, bias=True)
      (1): BatchNorm1d(128, eps=1e-05, momentum=0.1, affine=True, track_running_stats=True)
      (2): ReLU()
      (3): Linear(in_features=128, out_features=64, bias=True)
    ))
  )
  (batch_norms): ModuleList(
    (0-1): 2 x BatchNorm1d(64, eps=1e-05, momentum=0.1, affine=True, track_running_stats=True)
  )
  (lin1): Linear(in_features=64, out_features=64, bias=True)
  (batch_norm1): BatchNorm1d(64, eps=1e-05, momentum=0.1, affine=True, track_running_stats=True)
  (lin2): Linear(in_features=64, out_features=3, bias=True)
)
GIN(
  (convs): ModuleList(
    (0): GINConv(nn=Sequential(
      (0): Linear(in_features=89, out_features=128, bias=True)
      (1): BatchNorm1d(128, eps=1e-05, momentum=0.1, affine=True, track_running_stats=True)
      (2): ReLU()
      (3): Linear(in_features=128, out_features=64, bias=True)
    ))
    (1): GINConv(nn=Sequential(
      (0): Linear(in_features=64, out_features=128, bias=True)
      (1): BatchNorm1d(128, eps=1e-05, momentum=0.1, affine=True, track_running_stats=True)
      (2): ReLU()
      (3): Linear(in_features=128, out_features=64, bias=True)
    ))
  )
  (batch_norms): ModuleList(
    (0-1): 2 x BatchNorm1d(64, eps=1e-05, momentum=0.1, affine=True, track_running_stats=True)
  )
  (lin1): Linear(in_features=64, out_features=64, bias=True)
  (batch_norm1): BatchNorm1d(64, eps=1e-05, momentum=0.1, affine=True, track_running_stats=True)
  (lin2): Linear(in_features=64, out_features=3, bias=True)
)
round # 0		sampled_clients: [0, 1, 2, 3, 4]
[client 0]	loss_train: 1.1800	loss_val: 1.1077	loss_test: 1.1279	accuracy_train: 0.2086	accuracy_val: 0.2500	accuracy_test: 0.1818
[client 1]	loss_train: 1.0910	loss_val: 1.1608	loss_test: 1.1311	accuracy_train: 0.3413	accuracy_val: 0.2683	accuracy_test: 0.3182
[client 2]	loss_train: 1.0749	loss_val: 1.0819	loss_test: 1.0672	accuracy_train: 0.5815	accuracy_val: 0.6176	accuracy_test: 0.5143
…
