GIN(
  (convs): ModuleList(
    (0): GINConv(nn=Sequential(
      (0): Linear(in_features=89, out_features=128, bias=True)
      (1): BatchNorm1d(128, eps=1e-05, momentum=0.1, affine=True, track_running_stats=True)
      (2): ReLU()
      (3): Linear(in_features=128, out_features=64, bias=True)
    ))
    (1): GINConv(nn=Sequential(
      (0): Linear(in_features=64, out_features=128, bias=True)
      (1): BatchNorm1d(128, eps=1e-05, momentum=0.1, affine=True, track_running_stats=True)
      (2): ReLU()
      (3): Linear(in_features=128, out_features=64, bias=True)
    ))
  )
  (batch_norms): ModuleList(
    (0-1): 2 x BatchNorm1d(64, eps=1e-05, momentum=0.1, affine=True, track_running_stats=True)
  )
  (lin1): Linear(in_features=64, out_features=64, bias=True)
  (batch_norm1): BatchNorm1d(64, eps=1e-05, momentum=0.1, affine=True, track_running_stats=True)
  (lin2): Linear(in_features=64, out_features=2, bias=True)
)
GIN(
  (convs): ModuleList(
    (0): GINConv(nn=Sequential(
      (0): Linear(in_features=89, out_features=128, bias=True)
      (1): BatchNorm1d(128, eps=1e-05, momentum=0.1, affine=True, track_running_stats=True)
      (2): ReLU()
      (3): Linear(in_features=128, out_features=64, bias=True)
    ))
    (1): GINConv(nn=Sequential(
      (0): Linear(in_features=64, out_features=128, bias=True)
      (1): BatchNorm1d(128, eps=1e-05, momentum=0.1, affine=True, track_running_stats=True)
      (2): ReLU()
      (3): Linear(in_features=128, out_features=64, bias=True)
    ))
  )
  (batch_norms): ModuleList(
    (0-1): 2 x BatchNorm1d(64, eps=1e-05, momentum=0.1, affine=True, track_running_stats=True)
  )
  (lin1): Linear(in_features=64, out_features=64, bias=True)
  (batch_norm1): BatchNorm1d(64, eps=1e-05, momentum=0.1, affine=True, track_running_stats=True)
  (lin2): Linear(in_features=64, out_features=2, bias=True)
)
GIN(
  (convs): ModuleList(
    (0): GINConv(nn=Sequential(
      (0): Linear(in_features=89, out_features=128, bias=True)
      (1): BatchNorm1d(128, eps=1e-05, momentum=0.1, affine=True, track_running_stats=True)
      (2): ReLU()
      (3): Linear(in_features=128, out_features=64, bias=True)
    ))
    (1): GINConv(nn=Sequential(
      (0): Linear(in_features=64, out_features=128, bias=True)
      (1): BatchNorm1d(128, eps=1e-05, momentum=0.1, affine=True, track_running_stats=True)
      (2): ReLU()
      (3): Linear(in_features=128, out_features=64, bias=True)
    ))
  )
  (batch_norms): ModuleList(
    (0-1): 2 x BatchNorm1d(64, eps=1e-05, momentum=0.1, affine=True, track_running_stats=True)
  )
  (lin1): Linear(in_features=64, out_features=64, bias=True)
  (batch_norm1): BatchNorm1d(64, eps=1e-05, momentum=0.1, affine=True, track_running_stats=True)
  (lin2): Linear(in_features=64, out_features=2, bias=True)
)
GIN(
  (convs): ModuleList(
    (0): GINConv(nn=Sequential(
      (0): Linear(in_features=89, out_features=128, bias=True)
      (1): BatchNorm1d(128, eps=1e-05, momentum=0.1, affine=True, track_running_stats=True)
      (2): ReLU()
      (3): Linear(in_features=128, out_features=64, bias=True)
    ))
    (1): GINConv(nn=Sequential(
      (0): Linear(in_features=64, out_features=128, bias=True)
      (1): BatchNorm1d(128, eps=1e-05, momentum=0.1, affine=True, track_running_stats=True)
      (2): ReLU()
      (3): Linear(in_features=128, out_features=64, bias=True)
    ))
  )
  (batch_norms): ModuleList(
    (0-1): 2 x BatchNorm1d(64, eps=1e-05, momentum=0.1, affine=True, track_running_stats=True)
  )
  (lin1): Linear(in_features=64, out_features=64, bias=True)
  (batch_norm1): BatchNorm1d(64, eps=1e-05, momentum=0.1, affine=True, track_running_stats=True)
  (lin2): Linear(in_features=64, out_features=2, bias=True)
)
GIN(
  (convs): ModuleList(
    (0): GINConv(nn=Sequential(
      (0): Linear(in_features=89, out_features=128, bias=True)
      (1): BatchNorm1d(128, eps=1e-05, momentum=0.1, affine=True, track_running_stats=True)
      (2): ReLU()
      (3): Linear(in_features=128, out_features=64, bias=True)
    ))
    (1): GINConv(nn=Sequential(
      (0): Linear(in_features=64, out_features=128, bias=True)
      (1): BatchNorm1d(128, eps=1e-05, momentum=0.1, affine=True, track_running_stats=True)
      (2): ReLU()
      (3): Linear(in_features=128, out_features=64, bias=True)
    ))
  )
  (batch_norms): ModuleList(
    (0-1): 2 x BatchNorm1d(64, eps=1e-05, momentum=0.1, affine=True, track_running_stats=True)
  )
  (lin1): Linear(in_features=64, out_features=64, bias=True)
  (batch_norm1): BatchNorm1d(64, eps=1e-05, momentum=0.1, affine=True, track_running_stats=True)
  (lin2): Linear(in_features=64, out_features=2, bias=True)
)
GIN(
  (convs): ModuleList(
    (0): GINConv(nn=Sequential(
      (0): Linear(in_features=89, out_features=128, bias=True)
      (1): BatchNorm1d(128, eps=1e-05, momentum=0.1, affine=True, track_running_stats=True)
      (2): ReLU()
      (3): Linear(in_features=128, out_features=64, bias=True)
    ))
    (1): GINConv(nn=Sequential(
      (0): Linear(in_features=64, out_features=128, bias=True)
      (1): BatchNorm1d(128, eps=1e-05, momentum=0.1, affine=True, track_running_stats=True)
      (2): ReLU()
      (3): Linear(in_features=128, out_features=64, bias=True)
    ))
  )
  (batch_norms): ModuleList(
    (0-1): 2 x BatchNorm1d(64, eps=1e-05, momentum=0.1, affine=True, track_running_stats=True)
  )
  (lin1): Linear(in_features=64, out_features=64, bias=True)
  (batch_norm1): BatchNorm1d(64, eps=1e-05, momentum=0.1, affine=True, track_running_stats=True)
  (lin2): Linear(in_features=64, out_features=2, bias=True)
)
GIN(
  (convs): ModuleList(
    (0): GINConv(nn=Sequential(
      (0): Linear(in_features=89, out_features=128, bias=True)
      (1): BatchNorm1d(128, eps=1e-05, momentum=0.1, affine=True, track_running_stats=True)
      (2): ReLU()
      (3): Linear(in_features=128, out_features=64, bias=True)
    ))
    (1): GINConv(nn=Sequential(
      (0): Linear(in_features=64, out_features=128, bias=True)
      (1): BatchNorm1d(128, eps=1e-05, momentum=0.1, affine=True, track_running_stats=True)
      (2): ReLU()
      (3): Linear(in_features=128, out_features=64, bias=True)
    ))
  )
  (batch_norms): ModuleList(
    (0-1): 2 x BatchNorm1d(64, eps=1e-05, momentum=0.1, affine=True, track_running_stats=True)
  )
  (lin1): Linear(in_features=64, out_features=64, bias=True)
  (batch_norm1): BatchNorm1d(64, eps=1e-05, momentum=0.1, affine=True, track_running_stats=True)
  (lin2): Linear(in_features=64, out_features=2, bias=True)
)
GIN(
  (convs): ModuleList(
    (0): GINConv(nn=Sequential(
      (0): Linear(in_features=89, out_features=128, bias=True)
      (1): BatchNorm1d(128, eps=1e-05, momentum=0.1, affine=True, track_running_stats=True)
      (2): ReLU()
      (3): Linear(in_features=128, out_features=64, bias=True)
    ))
    (1): GINConv(nn=Sequential(
      (0): Linear(in_features=64, out_features=128, bias=True)
      (1): BatchNorm1d(128, eps=1e-05, momentum=0.1, affine=True, track_running_stats=True)
      (2): ReLU()
      (3): Linear(in_features=128, out_features=64, bias=True)
    ))
  )
  (batch_norms): ModuleList(
    (0-1): 2 x BatchNorm1d(64, eps=1e-05, momentum=0.1, affine=True, track_running_stats=True)
  )
  (lin1): Linear(in_features=64, out_features=64, bias=True)
  (batch_norm1): BatchNorm1d(64, eps=1e-05, momentum=0.1, affine=True, track_running_stats=True)
  (lin2): Linear(in_features=64, out_features=2, bias=True)
)
GIN(
  (convs): ModuleList(
    (0): GINConv(nn=Sequential(
      (0): Linear(in_features=89, out_features=128, bias=True)
      (1): BatchNorm1d(128, eps=1e-05, momentum=0.1, affine=True, track_running_stats=True)
      (2): ReLU()
      (3): Linear(in_features=128, out_features=64, bias=True)
    ))
    (1): GINConv(nn=Sequential(
      (0): Linear(in_features=64, out_features=128, bias=True)
      (1): BatchNorm1d(128, eps=1e-05, momentum=0.1, affine=True, track_running_stats=True)
      (2): ReLU()
      (3): Linear(in_features=128, out_features=64, bias=True)
    ))
  )
  (batch_norms): ModuleList(
    (0-1): 2 x BatchNorm1d(64, eps=1e-05, momentum=0.1, affine=True, track_running_stats=True)
  )
  (lin1): Linear(in_features=64, out_features=64, bias=True)
  (batch_norm1): BatchNorm1d(64, eps=1e-05, momentum=0.1, affine=True, track_running_stats=True)
  (lin2): Linear(in_features=64, out_features=2, bias=True)
)
GIN(
  (convs): ModuleList(
    (0): GINConv(nn=Sequential(
      (0): Linear(in_features=89, out_features=128, bias=True)
      (1): BatchNorm1d(128, eps=1e-05, momentum=0.1, affine=True, track_running_stats=True)
      (2): ReLU()
      (3): Linear(in_features=128, out_features=64, bias=True)
    ))
    (1): GINConv(nn=Sequential(
      (0): Linear(in_features=64, out_features=128, bias=True)
      (1): BatchNorm1d(128, eps=1e-05, momentum=0.1, affine=True, track_running_stats=True)
      (2): ReLU()
      (3): Linear(in_features=128, out_features=64, bias=True)
    ))
  )
  (batch_norms): ModuleList(
    (0-1): 2 x BatchNorm1d(64, eps=1e-05, momentum=0.1, affine=True, track_running_stats=True)
  )
  (lin1): Linear(in_features=64, out_features=64, bias=True)
  (batch_norm1): BatchNorm1d(64, eps=1e-05, momentum=0.1, affine=True, track_running_stats=True)
  (lin2): Linear(in_features=64, out_features=2, bias=True)
)
GIN(
  (convs): ModuleList(
    (0): GINConv(nn=Sequential(
      (0): Linear(in_features=89, out_features=128, bias=True)
      (1): BatchNorm1d(128, eps=1e-05, momentum=0.1, affine=True, track_running_stats=True)
      (2): ReLU()
      (3): Linear(in_features=128, out_features=64, bias=True)
    ))
    (1): GINConv(nn=Sequential(
      (0): Linear(in_features=64, out_features=128, bias=True)
      (1): BatchNorm1d(128, eps=1e-05, momentum=0.1, affine=True, track_running_stats=True)
      (2): ReLU()
      (3): Linear(in_features=128, out_features=64, bias=True)
    ))
  )
  (batch_norms): ModuleList(
    (0-1): 2 x BatchNorm1d(64, eps=1e-05, momentum=0.1, affine=True, track_running_stats=True)
  )
  (lin1): Linear(in_features=64, out_features=64, bias=True)
  (batch_norm1): BatchNorm1d(64, eps=1e-05, momentum=0.1, affine=True, track_running_stats=True)
  (lin2): Linear(in_features=64, out_features=2, bias=True)
)
round # 0		sampled_clients: [0, 1, 2, 3, 4, 5, 6, 7, 8, 9]
[client 0]	loss_train: 1.0892	loss_val: 1.1480	loss_test: 1.1599	accuracy_train: 0.2381	accuracy_val: 0.2727	accuracy_test: 0.2727
[client 1]	loss_train: 0.5386	loss_val: 0.5344	loss_test: 0.5979	accuracy_train: 0.9531	accuracy_val: 1.0000	accuracy_test: 0.7778
[client 2]	loss_train: 1.1516	loss_val: 1.1685	loss_test: 1.1364	accuracy_train: 0.0000	accuracy_val: 0.0000	accuracy_test: 0.0000
…
