GIN(
  (convs): ModuleList(
    (0): GINConv(nn=Sequential(
      (0): Linear(in_features=56, out_features=128, bias=True)
      (1): BatchNorm1d(128, eps=1e-05, momentum=0.1, affine=True, track_running_stats=True)
      (2): ReLU()
      (3): Linear(in_features=128, out_features=64, bias=True)
    ))
    (1): GINConv(nn=Sequential(
      (0): Linear(in_features=64, out_features=128, bias=True)
      (1): BatchNorm1d(128, eps=1e-05, momentum=0.1, affine=True, track_running_stats=True)
      (2): ReLU()
      (3): Linear(in_features=128, out_features=64, bias=True)
    ))
  )
  (batch_norms): ModuleList(
    (0-1): 2 x BatchNorm1d(64, eps=1e-05, momentum=0.1, affine=True, track_running_stats=True)
  )
  (lin1): Linear(in_features=64, out_features=64, bias=True)
  (batch_norm1): BatchNorm1d(64, eps=1e-05, momentum=0.1, affine=True, track_running_stats=True)
  (lin2): Linear(in_features=64, out_features=2, bias=True)
)
GIN(
  (convs): ModuleList(
    (0): GINConv(nn=Sequential(
      (0): Linear(in_features=56, out_features=128, bias=True)
      (1): BatchNorm1d(128, eps=1e-05, momentum=0.1, affine=True, track_running_stats=True)
      (2): ReLU()
      (3): Linear(in_features=128, out_features=64, bias=True)
    ))
    (1): GINConv(nn=Sequential(
      (0): Linear(in_features=64, out_features=128, bias=True)
      (1): BatchNorm1d(128, eps=1e-05, momentum=0.1, affine=True, track_running_stats=True)
      (2): ReLU()
      (3): Linear(in_features=128, out_features=64, bias=True)
    ))
  )
  (batch_norms): ModuleList(
    (0-1): 2 x BatchNorm1d(64, eps=1e-05, momentum=0.1, affine=True, track_running_stats=True)
  )
  (lin1): Linear(in_features=64, out_features=64, bias=True)
  (batch_norm1): BatchNorm1d(64, eps=1e-05, momentum=0.1, affine=True, track_running_stats=True)
  (lin2): Linear(in_features=64, out_features=2, bias=True)
)
GIN(
  (convs): ModuleList(
    (0): GINConv(nn=Sequential(
      (0): Linear(in_features=56, out_features=128, bias=True)
      (1): BatchNorm1d(128, eps=1e-05, momentum=0.1, affine=True, track_running_stats=True)
      (2): ReLU()
      (3): Linear(in_features=128, out_features=64, bias=True)
    ))
    (1): GINConv(nn=Sequential(
      (0): Linear(in_features=64, out_features=128, bias=True)
      (1): BatchNorm1d(128, eps=1e-05, momentum=0.1, affine=True, track_running_stats=True)
      (2): ReLU()
      (3): Linear(in_features=128, out_features=64, bias=True)
    ))
  )
  (batch_norms): ModuleList(
    (0-1): 2 x BatchNorm1d(64, eps=1e-05, momentum=0.1, affine=True, track_running_stats=True)
  )
  (lin1): Linear(in_features=64, out_features=64, bias=True)
  (batch_norm1): BatchNorm1d(64, eps=1e-05, momentum=0.1, affine=True, track_running_stats=True)
  (lin2): Linear(in_features=64, out_features=2, bias=True)
)
GIN(
  (convs): ModuleList(
    (0): GINConv(nn=Sequential(
      (0): Linear(in_features=56, out_features=128, bias=True)
      (1): BatchNorm1d(128, eps=1e-05, momentum=0.1, affine=True, track_running_stats=True)
      (2): ReLU()
      (3): Linear(in_features=128, out_features=64, bias=True)
    ))
    (1): GINConv(nn=Sequential(
      (0): Linear(in_features=64, out_features=128, bias=True)
      (1): BatchNorm1d(128, eps=1e-05, momentum=0.1, affine=True, track_running_stats=True)
      (2): ReLU()
      (3): Linear(in_features=128, out_features=64, bias=True)
    ))
  )
  (batch_norms): ModuleList(
    (0-1): 2 x BatchNorm1d(64, eps=1e-05, momentum=0.1, affine=True, track_running_stats=True)
  )
  (lin1): Linear(in_features=64, out_features=64, bias=True)
  (batch_norm1): BatchNorm1d(64, eps=1e-05, momentum=0.1, affine=True, track_running_stats=True)
  (lin2): Linear(in_features=64, out_features=2, bias=True)
)
GIN(
  (convs): ModuleList(
    (0): GINConv(nn=Sequential(
      (0): Linear(in_features=56, out_features=128, bias=True)
      (1): BatchNorm1d(128, eps=1e-05, momentum=0.1, affine=True, track_running_stats=True)
      (2): ReLU()
      (3): Linear(in_features=128, out_features=64, bias=True)
    ))
    (1): GINConv(nn=Sequential(
      (0): Linear(in_features=64, out_features=128, bias=True)
      (1): BatchNorm1d(128, eps=1e-05, momentum=0.1, affine=True, track_running_stats=True)
      (2): ReLU()
      (3): Linear(in_features=128, out_features=64, bias=True)
    ))
  )
  (batch_norms): ModuleList(
    (0-1): 2 x BatchNorm1d(64, eps=1e-05, momentum=0.1, affine=True, track_running_stats=True)
  )
  (lin1): Linear(in_features=64, out_features=64, bias=True)
  (batch_norm1): BatchNorm1d(64, eps=1e-05, momentum=0.1, affine=True, track_running_stats=True)
  (lin2): Linear(in_features=64, out_features=2, bias=True)
)
GIN(
  (convs): ModuleList(
    (0): GINConv(nn=Sequential(
      (0): Linear(in_features=56, out_features=128, bias=True)
      (1): BatchNorm1d(128, eps=1e-05, momentum=0.1, affine=True, track_running_stats=True)
      (2): ReLU()
      (3): Linear(in_features=128, out_features=64, bias=True)
    ))
    (1): GINConv(nn=Sequential(
      (0): Linear(in_features=64, out_features=128, bias=True)
      (1): BatchNorm1d(128, eps=1e-05, momentum=0.1, affine=True, track_running_stats=True)
      (2): ReLU()
      (3): Linear(in_features=128, out_features=64, bias=True)
    ))
  )
  (batch_norms): ModuleList(
    (0-1): 2 x BatchNorm1d(64, eps=1e-05, momentum=0.1, affine=True, track_running_stats=True)
  )
  (lin1): Linear(in_features=64, out_features=64, bias=True)
  (batch_norm1): BatchNorm1d(64, eps=1e-05, momentum=0.1, affine=True, track_running_stats=True)
  (lin2): Linear(in_features=64, out_features=2, bias=True)
)
round # 0		sampled_clients: [0, 1, 2, 3, 4]
[client 0]	loss_train: 0.7998	loss_val: 0.9596	loss_test: 0.8139	accuracy_train: 0.3333	accuracy_val: 0.2500	accuracy_test: 0.4000
[client 1]	loss_train: 0.6183	loss_val: 0.5802	loss_test: 0.6182	accuracy_train: 0.7818	accuracy_val: 0.7143	accuracy_test: 0.6250
[client 2]	loss_train: 0.8290	loss_val: 0.7968	loss_test: 0.7864	accuracy_train: 0.1290	accuracy_val: 0.2500	accuracy_test: 0.4000
…
